…
14000/14000 [==============================] - 3s 245us/step - loss: 0.0033 - accuracy: 0.9992 - val_loss: 0.0018 - val_accuracy: 0.9997
Epoch 7/7
14000/14000 [==============================] - 3s 231us/step - loss: 0.0011 - accuracy: 0.9998 - val_loss: 0.0013 - val_accuracy: 0.9997
<keras.callbacks.callbacks.History at 0x7fac0c13ec10>
model.summary()
Model: "sequential_1"
_________________________________________________________________
Layer (type)                 Output Shape              Param #   
=================================================================
conv2d_1 (Conv2D)            (None, 48, 48, 32)        320       
_________________________________________________________________
activation_1 (Activation)    (None, 48, 48, 32)        0         
_________________________________________________________________
conv2d_2 (Conv2D)            (None, 46, 46, 32)        9248      
_________________________________________________________________
activation_2 (Activation)    (None, 46, 46, 32)        0         
_________________________________________________________________
max_pooling2d_1 (MaxPooling2 (None, 23, 23, 32)        0         
_________________________________________________________________
dropout_1 (Dropout)          (None, 23, 23, 32)        0         
_________________________________________________________________
conv2d_3 (Conv2D)            (None, 21, 21, 64)        18496     
_________________________________________________________________
activation_3 (Activation)    (None, 21, 21, 64)        0         
_________________________________________________________________
max_pooling2d_2 (MaxPooling2 (None, 10, 10, 64)        0         
_________________________________________________________________
dropout_2 (Dropout)          (None, 10, 10, 64)        0         
_________________________________________________________________
flatten_1 (Flatten)          (None, 6400)              0         
_________________________________________________________________
dense_1 (Dense)              (None, 256)               1638656   
_________________________________________________________________
dense_2 (Dense)              (None, 10)                2570      
=================================================================
Total params: 1,669,290
Trainable params: 1,669,290
Non-trainable params: 0
_________________________________________________________________
plt.plot(model.history.history['loss'])
plt.plot(model.history.history['val_loss'])
plt.title('Model Loss')
plt.ylabel('Loss')
plt.xlabel('Epochs')
plt.legend(['train', 'test'])
plt.show()
…
